DL_ApproachesTraining/SemanticSegmentation/AlvaroUnet.pth (torch, 508047 bytes, 118 tensors)

first_conv.double_conv.0.conv1.weight f4 [4, 3, 3, 3]
0.12711893 0.16972376 0.017412808 0.2025062 -0.0022796541 0.120769784 0.031350628 0.16880447
0.18824819 -0.2276863 0.10222495 0.021478064 0.086351804 -0.012979071 0.09518629 0.015971761
0.12622619 -0.022484206 -0.16087618 0.0010055233 -0.09176113 -0.059434008 -0.104073025 0.13209829
-0.10451238 -0.10235951 -0.096949905 -0.1306382 0.0153189935 -0.15953258 0.1635776 -0.14192437
0.20786828 0.06615697 -0.024502525 0.16229044 -0.00040895917 0.13551286 0.033970244 -0.07381752
0.058177825 0.0010984289 0.09755301 0.19015558 0.14555724 -0.15043394 0.051218707 0.006584737
0.04734977 -0.14414042 -0.17847994 -0.090414666 -0.16201824 0.14500138 0.035926115 0.028311761
-0.028318498 -0.013774866 0.10796063 -0.2073225 0.021569736 -0.1538292 0.006918976 -0.053728912
0.035980552 -0.09995214 0.17804879 -0.1220889 -0.15476963 -0.07532843 0.17521243 0.040000428
0.22294857 -0.15033656 -0.21585143 -0.10067413 -0.10892871 0.06805136 0.13395844 0.1912782
-0.08950876 -0.18864475 0.04279541 -0.11766172 0.023090847 -0.1355568 0.03550181 -0.15457746
-0.10269804 0.07849531 0.016446818 -0.07144808 0.10646915 0.07253639 -0.19364369 -0.14084491
0.19796166 -0.0394138 -0.017018296 -0.18607083 -0.11261485 0.05980283 -0.058265045 -0.17197002
-0.012215058 -0.082514524 -0.11440997 -0.03297735
00000000: 772b 023e 11cc 2d3e 4ea5 8e3c c95d 4f3e
00000010: 4066 15bb 2656 f73d 8469 003d 14db 2c3e
00000020: 22c4 403e 9926 69be 515b d13d c4f2 af3c
00000030: 37d9 b03d 2ba6 54bc 08f1 c23d 36d7 823c
00000040: 7041 013e cc30 b8bc babc 24be c3cb 833a
00000050: 42ed bbbd 1371 73bd 3d24 d5bd c644 073e
00000060: 960a d6bd dda1 d1bd ac8d c6bd 05c6 05be
00000070: 84fc 7a3c 825c 23be e380 273e 9f54 11be
00000080: 6cdb 543e 4e7d 873d 85b9 c8bc 772f 263e
00000090: 9269 d6b9 e2c3 0a3e 6224 0b3d a42d 97bd
000000a0: df4b 6e3d 28f9 8f3a dfc9 c73d 25b8 423e
000000b0: f50c 153e 5b0b 1abe b5ca 513d c7c4 d73b
000000c0: d5f1 413d 8c99 13be 72c3 36be 532b b9bd
000000d0: 1ce8 25be 3e7b 143e 4327 133d 11ee e73c
000000e0: 32fc e7bc faaf 61bc 761a dd3d 594c 54be
000000f0: 04b3 b03c 6785 1dbe 94b8 e23b d912 5cbd
00000100: 5860 133d b5b3 ccbd 6c52 363e bf09 fabd
00000110: ee7b 1ebe cb45 9abd e36a 333e 7dd7 233d
00000120: a14c 643e d4f1 19be 2808 5dbe 3d2e cebd
00000130: 0416 dfbd 835e 8b3d 672c 093e 6fde 433e
00000140: 5e50 b7bd 172c 41be 3d4a 2f3d a1f8 f0bd
00000150: 0429 bd3c 67cf 0abe 596a 113d 8e49 1ebe
00000160: 5a53 d2bd 26c2 a03d 7abb 863c 5f53 92bd
00000170: 7f0c da3d f58d 943d 884a 46be a639 10be
00000180: 76b6 4a3e 5d70 21bd f469 8bbc 5a89 3ebe
00000190: 9da2 e6bd d0f3 743d 54a7 6ebd e918 30be
000001a0: ab21 48bc 60fd a8bd c64f eabd 4213 07bd

first_conv.double_conv.0.conv1.bias f4 [4]
-0.1657625 -0.12135092 0.18875779 0.035986863
00000000: a5bd 29be d586 f8bd b949 413e f666 133d

first_conv.double_conv.1.weight f4 [4]
0.95938945 0.93926835 0.9956666 1.0021749
00000000: 8c9a 753f e473 703f 02e4 7e3f 4447 803f

first_conv.double_conv.1.bias f4 [4]
0.31008372 0.2257366 0.023675822 -0.0032635522
00000000: 4bc3 9e3e 7f27 673e ccf3 c13c 52e1 55bb

first_conv.double_conv.1.running_mean f4 [4]
0.16955638 0.02316743 0.013509084 -0.6593747
00000000: 30a0 2d3e 9fc9 bd3c 3455 5d3c c8cc 28bf

first_conv.double_conv.1.running_var f4 [4]
0.013822865 0.0031530159 0.0048570638 0.056883585
00000000: 4c79 623c d4a2 4e3b 0128 9f3b c3fe 683d

first_conv.double_conv.3.conv1.weight f4 [4, 4, 3, 3]
0.020006612 -0.17772926 -0.1343765 -0.07877951 0.007514653 -0.16031273 -0.088519394 -0.11046199
-0.0054679094 -0.08875351 -0.03243567 -0.12430612 -0.14040013 -0.12547395 -0.077701285 -0.14439186
0.12062721 -0.046122983 0.14230537 0.05998163 -0.07600473 0.15466355 -0.014945459 0.010549833
-0.05434944 -0.100903235 0.14497001 0.019675639 0.11687312 -0.05372121 0.20233278 -0.048776675
0.054440614 0.11612987 0.16044383 0.21161588 -0.06725562 -0.3830105 -0.20964162 -0.29469302
-0.26626527 -0.36882514 -0.080741204 -0.3732134 -0.16613075 -0.12994528 -0.15513472 -0.28540605
-0.019246235 -0.14309508 -0.1516428 -0.26680973 -0.08136911 -0.18102118 -0.14755821 0.11826676
-0.109812856 -0.12347772 -0.0484648 -0.10231371 0.10524945 0.039161786 -0.12059204 -0.14117727
-0.1832251 -0.0019018668 0.035875082 -0.2124676 -0.009848147 0.047575396 0.028207228 -0.04596582
0.19774555 0.12417852 0.117228754 0.068875365 -0.051854905 0.016316175 0.055684533 -0.09533011
0.039034404 0.16314435 -0.08518675 -0.104833595 0.003789694 -0.123576365 -0.08679121 0.051216736
-0.24809623 -0.17127022 0.04519399 0.056605462 -0.13612758 -0.21368827 -0.1347411 -0.3121853
-0.1455312 0.047671925 -0.054352205 0.03246841 -0.20698059 -0.1585445 -0.04787987 0.11887572
-0.015125908 -0.095625706 0.010605225 -0.12008397 -0.10229752 0.1379195 -0.053064376 -0.032087505
-0.1494366 0.11993624 0.10286165 0.03833482 -0.13744627 -0.1746098 -0.13256261 0.13316269
0.04820521 0.103969306 0.06346786 -0.04491768 -0.09321338 -0.20044927 -0.14411972 -0.14696479
0.10490402 -0.1090561 -0.06264317 -0.10403487 -0.07951216 -0.16799507 -0.14418949 0.026391517
-0.07404844 0.07567617 -0.05835491 -0.12419703 -0.03861877 -0.1468566 -0.10892171 -0.2076498
00000000: e8e4 a33c a9fe 35be fe99 09be 2757 a1bd
00000010: 7a3d f63b 0529 24be a849 b5bd e539 e2bd
00000020: 262c b3bb 66c4 b5bd 44db 04bd 3594 febd
00000030: 0dc5 0fbe 3e7c 00be da21 9fbd 76db 13be
00000040: 660b f73d 74eb 3cbd 80b8 113e 4caf 753d
00000050: 5ea8 9bbd 1f60 1e3e ccdd 74bc 35d9 2c3c
00000060: 859d 5ebd 5ba6 cebd 0573 143e ce2e a13c
00000070: 2d5b ef3d c60a 5cbd 5330 4f3e 0dca 47bd
00000080: 1ffd 5e3d 7fd5 ed3d 634b 243e d5b1 583e
00000090: 51bd 89bd f419 c4be 4bac 56be 01e2 96be
000000a0: ec53 88be a6d6 bcbe a55b a5bd d415 bfbe
000000b0: 2e1e 2abe 6010 05be a3db 1ebe be20 92be
000000c0: 48aa 9dbc 8487 12be 4048 1bbe 499b 88be
000000d0: d9a4 a6bd 9e5d 39be 8019 17be d835 f23d
000000e0: 90e5 e0bd e3e1 fcbd 0783 46bd da89 d1bd
000000f0: 068d d73d 1c68 203d f6f8 f6bd c690 10be
00000100: 5c9f 3bbe 0f48 f9ba c0f1 123d 1b91 59be
00000110: 1f5a 21bc 6bde 423d d812 e73c a846 3cbd
00000120: cf7d 4a3e 4f51 fe3d a115 f03d 870e 8d3d
00000130: cf65 54bd 80a9 853c 7715 643d 6f3c c3bd
00000140: 8ae2 1f3d 500f 273e 6476 aebd ffb2 d6bd
00000150: 845c 783b 9b15 fdbd 97bf b1bd a4c8 513d
00000160: f00c 7ebe 7661 2fbe 551d 393d 21db 673d
00000170: 0765 0bbe 19d1 5abe 92f9 09be c0d6 9fbe
00000180: 2206 15be a343 433d 6ba0 5ebd 98fd 043d
00000190: b8f2 53be 7d59 22be af1d 44bd 1d75 f33d
000001a0: a8d2 77bc 69d7 c3bd 8ac1 2d3c 96ee f5bd
000001b0: 5d81 d1bd c53a 0d3e 085a 59bd 306e 03bd
000001c0: e805 19be 22a1 f53d 21a9 d23d f904 1d3d
000001d0: b7be 0cbe e9cc 32be 7ebe 07be cd5b 083e
000001e0: d472 453d dced d43d 70fb 813d 9afb 37bd
000001f0: a8e6 bebd 9342 4dbe 1f94 13be f07d 16be
00000200: ebd7 d63d ce58 dfbd 104b 80bd 3c10 d5bd
00000210: 45d7 a2bd e606 2cbe 69a6 13be 0633 d83c
00000220: b5a6 97bd 1cfc 9a3d 8f05 6fbd 035b febd
00000230: b72e 1ebd 9461 16be 5812 dfbd 26a2 54be

first_conv.double_conv.3.conv1.bias f4 [4]
0.091894 -0.114302814 0.08253965 0.07481187
00000000: ec32 bc3d 9817 eabd 8c0a a93d f736 993d

first_conv.double_conv.4.weight f4 [4]
1.0154084 0.88564235 0.9768361 0.9924271
00000000: e7f8 813f 75b9 623f ee11 7a3f b40f 7e3f

first_conv.double_conv.4.bias f4 [4]
-0.0059670615 0.00049879606 0.052098077 -0.007919081
00000000: 5787 c3bb a3c1 023a cb64 553d 08bf 01bc

first_conv.double_conv.4.running_mean f4 [4]
-0.2874844 -2.6132023 -0.48903108 -0.744453
00000000: 2831 93be b53e 27c0 4862 fabe 7994 3ebf

first_conv.double_conv.4.running_var f4 [4]
1.529109 1.5404738 0.74907005 0.7419467
00000000: d8b9 c33f 3f2e c53f 0ec3 3f3f 38f0 3d3f

down_conv1.encoder.1.double_conv.0.conv1.weight f4 [8, 4, 3, 3]
0.055451754 -0.10899895 0.16519167 -0.1000293 0.09060564 0.19748084 -0.016498856 0.027830476
-0.0107125 -0.108354256 0.12942398 -0.12570071 0.13449831 0.17092994 0.19172159 -0.039881602
-0.112511985 0.051163156 0.15988174 -0.12944034 -0.04318384 -0.08306507 -0.03418003 -0.11579572
-0.07465084 -0.06467485 -0.16620302 0.1394002 0.10046805 -0.07549998 -0.029296802 -0.09553485
-0.17833938 -0.1493677 0.058835812 -0.090950735 -0.17395328 -0.0695286 -0.11505413 -0.14474861
-0.061279148 -0.08830165 -0.14189914 -0.13749869 -0.17058845 0.13104893 -0.02818387 0.07074997
-0.049450945 0.06581096 0.19847468 0.04604026 -0.15054655 0.08160469 0.14397961 0.045504335
0.11811145 0.16930345 -0.036305767 0.038659364 -0.122522205 -0.06632608 0.089346044 0.11365291
-0.07619399 -0.1129904 -0.076380596 -0.136249 -0.1118551 -0.015645282 0.12561937 0.024831293
-0.13264298 -0.14982176 0.052178815 -0.15174788 -0.046379443 0.055632718 -0.12512574 -0.04713996
-0.026364533 -0.02915122 -0.09089747 -0.15483636 -0.1516515 -0.0659231 0.20475934 -0.08566443
-0.04108852 0.12278756 0.006513443 0.07823201 0.18226781 0.07235964 -0.13870856 0.066656694
0.14299393 0.037920732 -0.056257613 0.1434756 -0.05678611 -0.08323885 -0.1360193 0.019366074
0.05991751 0.05183659 0.028387899 -0.16773109 -0.1704614 0.0101288315 0.17234758 0.047568932
-0.119596384 -0.051515374 -0.247681 -0.16166261 -0.0441654 0.043085504 0.1327838 -0.16054623
-0.003667567 -0.14004387 0.056396257 0.015877007 -0.045755286 0.1598351 -0.08388433 -0.03967624
0.09308104 0.00025432534 0.0045597074 -0.037018817 0.18848197 0.15515418 0.11166903 -0.068197034
-0.110228166 0.030567884 0.08748076 -0.014868642 0.01825823 0.2073728 0.10006693 0.08299972
-0.101382606 -0.20405658 -0.21079685 -0.16180545 -0.15221266 -0.0042161867 -0.14006466 -0.13564496
0.109619915 0.082762845 0.16945039 0.0056441696 -0.04579475 0.09447053 -0.043493904 -0.10456322
0.028856818 0.02737221 -0.13617569 0.10274169 0.109284 0.030755864 -0.019501595 -0.1733196
-0.07565316 0.039688297 0.04262196 0.0058831186 -0.04301779 0.11143736 -0.09009581 0.13260172
-0.047054093 0.053384535 0.006024673 0.0364263 -0.018448804 0.13110639 0.041106917 0.15293692
0.16140264 -0.03975386 -0.10817955 0.11594308 0.14535734 -0.22205055 -0.11218669 -0.22673947
-0.20320734 -0.013929777 0.036742073 -0.02843165 -0.07354721 0.14096235 0.035157714 -0.073740505
0.020031985 0.07229411 0.09940357 -0.08861802 0.09648314 -0.050151724 -0.13380401 -0.0774591
0.16798274 0.14088632 0.16283219 0.11037257 0.12079595 -0.0033762092 -0.07454582 0.081686586
-0.11725244 -0.15270111 -0.14799857 0.06822819 0.12565684 -0.05587557 0.094718054 0.23273177
0.07332637 -0.2265526 0.0029920288 -0.1331228 0.18052375 0.21344346 0.10141704 0.05851734
0.091423534 0.07150178 0.09303361 0.10270033 0.1904616 0.19922379 -0.05929421 -0.004542486
-0.11956803 -0.1619333 0.04628498 0.14743586 0.12055138 0.121083744 -0.16015622 -0.15610132
-0.007795756 -0.10466308 -0.066537485 -0.1753521 -0.02912491 -0.17567705 -0.18595819 -0.19482796
00000000: 6121 633d d73a dfbd 0128 293e 29dc ccbd
00000010: 738f b93d 6b38 4a3e 9c28 87bc bdfc e33c
00000020: 7b83 2fbc d6e8 ddbd b887 043e b0b7 00be
00000030: edb9 093e 4208 2f3e aa52 443e e45a 23bd
00000040: af6c e6bd 7590 513d 0ab8 233e 028c 04be
00000050: 8ae1 30bd 051e aabd 5c00 0cbd 4e26 edbd
00000060: 8ae2 98bd 3f74 84bd 2031 2abe edbe 0e3e
00000070: 31c2 cd3d bc9f 9abd d9ff efbc c7a7 c3bd
00000080: 999e 36be d9f3 18be d2fd 703d 6144 babd
00000090: cf20 32be 0365 8ebd 80a1 ebbd fb38 14be
000000a0: d8ff 7abd 7fd7 b4bd 024e 11be 75cc 0cbe
000000b0: bdae 2ebe b131 063e dce1 e6bc 5ce5 903d
000000c0: 138d 4abd e6c7 863d f23c 4b3e b694 3c3d
000000d0: e028 1abe 5c20 a73d 646f 133e c162 3a3d
000000e0: 6ae4 f13d e25d 2d3e 5bb5 14bd 4859 1e3d
000000f0: ecec fabd f8d5 87bd 0ffb b63d dbc2 e83d
00000100: 980b 9cbd 8367 e7bd 6e6d 9cbd dc84 0bbe
00000110: 4914 e5bd 892a 80bc 5da2 003e ff6a cb3c
00000120: 90d3 07be e06a 19be 74b9 553d cc63 1bbe
00000130: 5ff8 3dbd 22df 633d f620 00be d515 41bd
00000140: 6ffa d7bc 8ace eebc 7428 babd 6c8d 1ebe
00000150: 884a 1bbe b102 87bd 6fac 513e d570 afbd
00000160: 704c 28bd 0b78 fb3d b86e d53b 1b38 a03d
00000170: 6aa4 3a3e 4a31 943d 9e09 0ebe 4e83 883d
00000180: 006d 123e c552 1b3d 626e 66bd 45eb 123e
00000190: 8d98 68bd 2179 aabd a548 0bbe 9aa5 9e3c
000001a0: 106c 753d 9b52 543d bd8d e83c b3c1 2bbe
000001b0: 6f8d 2ebe 66f3 253c e27b 303e a4d7 423d
000001c0: f3ee f4bd c901 53bd 17a0 7dbe e28a 25be
000001d0: c7e6 34bd 6d7a 303d 7af8 073e 3b66 24be
000001e0: 905b 70bb a967 0fbe c3ff 663d 7f10 823c
000001f0: e569 3bbd d0ab 233e 8ccb abbd 8e83 22bd
00000200: 46a1 be3d f856 8539 9969 953b 0ba1 17bd
00000210: 6b01 413e bde0 1e3e bbb2 e43d e3aa 8bbd
00000220: 4ebf e1bd 8069 fa3c 1d29 b33d 9b9b 73bc
00000230: 4992 953c 8959 543e e4ef cc3d c2fb a93d
00000240: afa1 cfbd 35f4 50be 21db 57be 54b0 25be
00000250: a3dd 1bbe f027 8abb 1c6d 0fbe 83e6 0abe
00000260: 6880 e03d 917f a93d 6784 2d3e baf2 b83b
00000270: 4793 3bbd c479 c13d aa26 32bd 3e25 d6bd
00000280: 2265 ec3c af3b e03c a471 0bbe 3c6a d23d
00000290: 4ad0 df3d b9f3 fb3c cfc1 9fbc b17a 31be
000002a0: 0bf0 9abd 3290 223d 5d94 2e3d 2dc7 c03b
000002b0: 6c33 30bd 4539 e43d 2784 b8bd bfc8 073e
000002c0: cbbb 40bd bea9 5a3d 9f6a c53b be33 153d
000002d0: f221 97bc c140 063e ba5f 283d 7f9b 1c3e
000002e0: bc46 253e f2d4 22bd 3d8d ddbd 9173 ed3d
000002f0: 8ed8 143e 3861 63be 23c2 e5bd 642e 68be
00000300: 9615 50be b839 64bc db7e 163d 7ee9 e8bc
00000310: eb9f 96bd 6f58 103e 8901 103d 4305 97bd
00000320: 1e1a a43c ef0e 943d 1994 cb3d 5d7d b5bd
00000330: f498 c53d e56b 4dbd eb03 09be e0a2 9ebd
00000340: ab03 2c3e 8144 103e 7bbd 263e 040b e23d
00000350: de63 f73d 6443 5dbb 7bab 98bd 4c4b a73d
00000360: 0c22 f0bd ae5d 1cbe f08c 17be 39bb 8b3d
00000370: 30ac 003e c8dd 64bd 8afb c13d 3d51 6e3e
00000380: 232c 963d 68fd 67be ea15 443b 5851 08be
00000390: 38db 383e ec90 5a3e bdb3 cf3d e1af 6f3d
000003a0: 433c bb3d 866f 923d 6888 be3d 8d54 d23d
000003b0: 5e08 433e 5201 4c3e 7cde 72bd 22d9 94bb
000003c0: 15e0 f4bd d8d1 25be 5295 3d3d 6df9 163e
000003d0: a4e3 f63d c1fa f73d feff 23be 06d9 1fbe
000003e0: 8b73 ffbb 9959 d6bd ce44 88bd 808f 33be
000003f0: 5d97 eebc afe4 33be d36b 3ebe fb80 47be

down_conv1.encoder.1.double_conv.0.conv1.bias f4 [8]
0.13262108 -0.056723475 -0.03674673 0.07915427 -0.0448317 0.07691996 -0.035880957 -0.11140388
00000000: d2cd 073e e056 68bd bd83 16bd a21b a23d
00000010: 72a1 37bd 3688 9d3d e9f7 12bd b827 e4bd

down_conv1.encoder.1.double_conv.1.weight f4 [8]
1.0108802 0.96913505 1.0204512 0.9286466 0.9772208 0.92419124 1.044364 1.0079257
00000000: 8664 813f 3c19 783f 259e 823f c9bb 6d3f
00000010: 242b 7a3f cc97 6c3f b8ad 853f b603 813f

down_conv1.encoder.1.double_conv.1.bias f4 [8]
0.0051272833 0.07189491 0.037673265 -0.01998921 0.016147384 -0.05768332 0.018295256 0.024779962
00000000: c502 a83b a33d 933d 484f 1a3d 69c0 a3bc
00000010: 8547 843c 5845 6cbd efdf 953c 59ff ca3c

down_conv1.encoder.1.double_conv.1.running_mean f4 [8]
-0.014492913 -0.33777323 -0.2819503 0.1875441 -0.3752904 0.32069907 0.17094228 -0.05556153
00000000: af73 6dbc 9df0 acbe ca5b 90be 900b 403e
00000010: 1026 c0be ab32 a43e 7e0b 2f3e 7d94 63bd

down_conv1.encoder.1.double_conv.1.running_var f4 [8]
0.3261464 0.4881611 0.33762336 0.34686422 0.42239696 0.06202022 0.13054891 0.38164926
00000000: a9fc a63e 40f0 f93e f8dc ac3e 3098 b13e
00000010: 6a44 d83e ea08 7e3d 9dae 053e 8867 c33e

down_conv1.encoder.1.double_conv.3.conv1.weight f4 [8, 8, 3, 3]
0.11492349 0.088767074 0.1176842 0.14584541 0.090581134 0.11164514 0.02816514 -0.12145059
-0.11228739 -0.07296968 -0.110824354 -0.08881873 -0.12043236 -0.11156283 -0.08875893 -0.11741698
-0.061414033 0.048708823 0.08887337 -0.038703125 -0.049721405 0.03653904 -0.06095234 -0.05485363
0.050853238 -0.09426565 0.030013097 0.056207124 -0.0117646735 0.035873152 -0.10394203 -0.03204844
0.009357169 0.0077720233 0.022591997 0.1096162 -0.122264765 -0.046808753 -0.086935095 -0.108055435
-0.038416233 -0.11088687 0.0780395 -0.0076461285 -0.07026471 0.048139732 -0.11739016 -0.056200437
-0.02709522 -0.09660579 -0.07158474 -0.007689712 0.102111004 0.12815867 0.13695571 -0.05150406
-0.09304438 0.10101874 -0.010530325 -0.06454302 0.04148752 -0.13173637 -0.087462164 0.04168621
-0.09444769 -0.06769817 -0.13835348 -0.10896925 -0.05153136 -0.095393576 -0.036580823 0.021001004
-0.17182724 -0.029364552 -0.13864885 -0.121664844 -0.02506763 0.025412356 -0.09841295 -0.109296784
-0.15528837 -0.017925633 -0.0775667 -0.0031524936 0.040319737 -0.103890106 0.10519917 0.12418108
-0.08020651 -0.019976094 0.03380822 -0.026983246 -0.017871598 -0.038173616 0.102189906 -0.05738815
0.1468142 0.038011886 0.04212554 0.08235069 -0.0195213 -0.051607486 0.0043976894 0.10697973
-0.064513326 0.062144466 -0.082308106 0.07732964 0.028197825 0.010904102 0.053913917 0.0013276163
0.07922228 -0.08107663 0.0028389671 0.075078234 0.114872776 0.033668686 -0.11399532 0.056162342
-0.0500825 -0.053159323 -0.13515921 -0.03737479 0.056979574 -0.006171044 -0.05459556 0.04820617
-0.020092327 0.093460076 -0.10694444 -0.021212209 -0.10851339 -0.010048611 0.1084636 0.12720554
0.03496019 0.13822255 -0.0009364096 0.052474458 0.07950868 0.0856283 -0.07292121 0.09891362
0.06306184 -0.071596324 -0.08033423 -0.12131188 -0.007311722 -0.12069156 0.025878461 0.0070439894
-0.1107645 -0.015929135 -0.06972952 0.046864435 0.032269016 -0.16525306 0.1139111 0.099157386
0.022699554 -0.084678516 -0.04425282 -0.026993806 0.010681368 0.07606269 0.055397965 0.14797518
0.01039642 0.08430169 0.09908428 -0.11101692 -0.096324444 -0.04522937 0.064824626 -0.08222726
-0.06300175 0.03911713 0.057762023 0.09446678 -0.10097422 -0.09255021 0.030390777 0.0939645
0.06777173 -0.006316933 0.048565492 0.110302344 -0.117480695 -0.044362843 0.09610238 -0.054537702
-0.05293825 0.10613736 0.06746005 0.06340533 -0.01377615 0.030357441 0.078606166 -0.1261923
-0.056422364 0.042942956 -0.1321465 0.07404156 -0.08698478 -0.026676213 0.025372874 -0.08939806
-0.13632226 0.019472484 0.0053894785 -0.12393011 -0.1113933 0.07791884 0.034061123 0.029224472
-0.0114154415 -0.00019855956 0.0456124 0.037323993 -0.02592281 0.07995716 0.09065032 0.044017687
0.088663734 -0.06375569 0.0061854036 0.014575288 -0.059793107 -0.11155326 0.060732868 0.0026030997
-0.08150279 0.092321455 -0.04917982 0.07959708 0.05314754 -0.101590894 0.06559964 -0.11638122
-0.09482498 -0.049330298 -0.10434381 0.09152018 -0.030471304 0.033815123 -0.14625682 0.02830929
-0.06440388 -0.12581909 -0.011882807 0.04035565 0.073633544 -0.096921355 -0.08398208 -0.013369582
00000000: 025d eb3d 83cb b53d 6a04 f13d 8058 153e
00000010: 9a82 b93d 35a6 e43d 94ba e63c 16bb f8bd
00000020: eef6 e5bd 2171 95bd e1f7 e2bd 98e6 b5bd
00000030: 3ea5 f6bd 0e7b e4bd 3ec7 b5bd 5078 f0bd
00000040: 488d 7bbd e782 473d 3e03 b63d 2b87 1ebd
00000050: aca8 4bbd f6a9 153d 29a9 79bd 33ae 60bd
00000060: 7c4b 503d 590e c1bd 07de f53c 7139 663d
00000070: 9ec0 40bc baef 123d 8fdf d4bd 3a45 03bd
00000080: d04e 193c 75ac fe3b da12 b93c 757e e03d
00000090: f365 fabd 89ba 3fbd 070b b2bd 2b4c ddbd
000000a0: 575a 1dbd a818 e3bd 2cd3 9f3d 608c fabb
000000b0: f2e6 8fbd 2b2e 453d 416a f0bd 6e32 66bd
000000c0: cbf6 ddbc 42d9 c5bd 059b 92bd fbf9 fbbb
000000d0: 931f d13d 073c 033e 1e3e 0c3e ecf5 52bd
000000e0: 0d8e bebd eae2 ce3d 6287 2cbc 222f 84bd
000000f0: d1ee 293d e6e5 06be 5d1f b3bd 29bf 2a3d
00000100: ca6d c1bd 57a5 8abd 89ac 0dbe 452b dfbd
00000110: 8c12 53bd b55d c3bd c6d5 15bd 4c0a ac3c
00000120: 7bf3 2fbe ee8d f0bc f7f9 0dbe 6b2b f9bd
00000130: a15a cdbc 932d d03c bb8c c9bd fed6 dfbd
00000140: ea03 1fbe c7d8 92bc 4adb 9ebd 119a 4ebb
00000150: 4f26 253d 56c4 d4bd aa72 d73d a652 fe3d
00000160: 5043 a4bd e8a4 a3bc 7d7a 0a3d f80b ddbc
00000170: 7567 92bc f05b 1cbd f148 d13d d60f 6bbd
00000180: 7656 163e 5ab2 1b3d d58b 2c3d 7ba7 a83d
00000190: 22eb 9fbc 5f62 53bd 7e1a 903b 3018 db3d
000001a0: 901f 84bd 328b 7e3d 2791 a8bd 015f 9e3d
000001b0: 20ff e63c 1ea7 323c d7d4 5c3d 6903 ae3a
000001c0: 4a3f a23d 810b a6bd f70d 3a3b 9ec2 993d
000001d0: 6b42 eb3d 2de8 093d 6176 e9bd 7c0a 663d
000001e0: 4f23 4dbd 97bd 59bd 2d67 0abe 4f16 19bd
000001f0: 6a63 693d 7836 cabb 989f 5fbd d573 453d
00000200: aa98 a4bc ff67 bf3d b005 dbbd 3ac5 adbc
00000210: 453c debd eea2 24bc 2a22 de3d 2b42 023e
00000220: 6b32 0f3d 368a 0d3e 6279 75ba 75ef 563d
00000230: 72d5 a23d e45d af3d b757 95bd 3993 ca3d
00000240: 9126 813d 18a1 92bd 4686 a4bd 5d72 f8bd
00000250: 2b97 efbb 232d f7bd 11ff d33c 44d1 e63b
00000260: 80d8 e2bd d17d 82bc 5ace 8ebd ecf4 3f3d
00000270: 842c 043d 1938 29be 394a e93d 0713 cb3d
00000280: 6af4 b93c ee6b adbd 7242 35bd 1d22 ddbc
00000290: e800 2f3c c1c6 9b3d fae8 623d ce86 173e
000002a0: bf55 2a3c 5da6 ac3d b3ec ca3d d75c e3bd
000002b0: c045 c5bd 6f42 39bd c6c2 843d c466 a8bd
000002c0: 1007 81bd 4939 203d df97 6c3d cd77 c13d
000002d0: 92cb cebd f78a bdbd 14f6 f83c 7670 c03d
000002e0: e8cb 8a3d 46fe cebb 9cec 463d 32e6 e13d
000002f0: b899 f0bd d0b5 35bd 53d1 c43d ed62 5fbd
00000300: c7d5 58bd 8b5e d93d 7f28 8a3d a7da 813d
00000310: 5cb5 61bc 2bb0 f83c 45fc a03d 8e38 01be
00000320: 231b 67bd f4e4 2f3d 6951 07be 1aa3 973d
00000330: 1425 b2bd 1388 dabc c6da cf3c 5516 b7bd
00000340: 1098 0bbe c284 9f3c 399a b03b 12cf fdbd
00000350: 2c22 e4bd ea93 9f3d ad83 0b3d 2968 ef3c
00000360: d507 3bbc 6d34 50b9 11d4 3a3d 0be1 183d
00000370: 135c d4bc 94c0 a33d e0a6 b93d e44b 343d
00000380: 5595 b53d 5892 82bd edae ca3b 30cd 6e3c
00000390: 9ee9 74bd 0976 e4bd 07c3 783d c498 2a3b
000003a0: efea a6bd 0813 bd3d c770 49bd cb03 a33d
000003b0: 3cb1 593d e30e d0bd 1b59 863d 4759 eebd
000003c0: 9933 c2bd 910e 4abd 35b2 d5bd ef6e bb3d
000003d0: f59e f9bc ba81 0a3d 59c4 15be e2e8 e73c
000003e0: 2ee6 83bd b8d6 00be 1bb0 42bc f74b 253d
000003f0: 2fcd 963d b47e c6bd ccfe abbd 170c 5bbc

down_conv1.encoder.1.double_conv.3.conv1.bias f4 [8]
-0.019903673 -0.108586825 0.11465895 -0.047261566 -0.008194309 0.10630934 -0.08051279 -0.082186416
00000000: 070d a3bc c562 debd 50d2 ea3d 5895 41bd
00000010: 6c41 06bc b6b8 d93d e4e3 a4bd 5a51 a8bd

down_conv1.encoder.1.double_conv.4.weight f4 [8]
1.0157499 0.93456733 0.9513838 0.9678836 1.0198443 0.97374004 0.9633863 0.9470896
00000000: 1804 823f ce3f 6f3f e48d 733f 38c7 773f
00000010: 428a 823f 0747 793f 7ca0 763f 7774 723f

down_conv1.encoder.1.double_conv.4.bias f4 [8]
-0.042586755 -0.011441449 -0.033143677 -0.040811624 0.0001864186 -0.0046511004 -0.01719918 -0.0024386423
00000000: 736f 2ebd ea74 3bbc aac1 07bd 172a 27bd
00000010: 5d79 4339 4268 98bb 4be5 8cbc a1d1 1fbb

down_conv1.encoder.1.double_conv.4.running_mean f4 [8]
-0.6784817 -0.08324204 -0.07337764 -0.42381683 0.5876109 0.042599987 -0.49243483 -0.5444741
00000000: fab0 2dbf cd7a aabd 0447 96bd 85fe d8be
00000010: ab6d 163f 537d 2e3d 6b20 fcbe a862 0bbf

down_conv1.encoder.1.double_conv.4.running_var f4 [8]
0.6193006 0.84911835 0.17142703 0.3625252 0.31067997 0.7715743 0.68166703 0.21613896
00000000: 7c8a 1e3f d25f 593f 918a 2f3e e79c b93e
00000010: 7211 9f3e e585 453f bb81 2e3f 8853 5d3e

down_conv2.encoder.1.double_conv.0.conv1.weight f4 [16, 8, 3, 3]
0.041679632 0.03969508 0.0486782 -0.13912259 0.0006464879 -0.04843944 -0.10504234 -0.12893802
0.035040498 0.012206577 -0.10041361 0.08419725 0.052449852 0.046347734 -0.052086566 0.016565116
0.12763079 0.09267508 -0.10308297 0.10370086 -0.017127745 0.042912994 0.07984539 0.062359408
-0.093868025 0.09469001 -0.09501754 0.002346871 -0.082304366 -0.034520864 -0.012274695 -0.013952207
-0.024106126 0.007872621 0.11754937 0.065924704 0.07923586 0.10621139 0.16395195 -0.026705317
0.06765274 0.07407496 -0.12476155 -0.09525325 -0.02221309 -0.085869096 -0.012273409 -0.0032702684
-0.041993648 0.05481101 -0.026736198 0.076342255 0.05890062 -0.14652961 -0.105906926 -0.07723108
-0.028684163 -0.063771404 0.008905641 0.024777694 -0.08718017 -0.051836226 -0.024333335 0.13209055
-0.006926258 -0.06009736 -0.0031216184 0.0070191054 0.12272379 0.00951816 0.07804629 -0.08767413
0.20655599 0.2522786 0.062107764 0.21684612 0.19328254 0.06951568 0.07603058 -0.028589783
-0.08224144 -0.035767537 -0.0025177947 -0.096798874 0.014695234 -0.114913926 0.0784164 0.097384326
0.033216417 -0.08233636 -0.022289712 -0.04224403 -0.019722857 -0.02510184 0.02468197 -0.12773953
-0.064940676 -0.020578546 -0.055882484 0.11271045 -0.019384274 0.04739215 0.029321037 -0.019824589
0.09370263 0.0098354835 -0.1152659 -0.030165592 0.025709186 0.0014717877 -0.07303273 -0.07566708
-0.023905864 0.038718842 -0.037648745 0.16339342 0.06391345 0.05672426 -0.03795671 -0.22392116
0.03221993 0.084579594 -0.09657281 -0.08432079 0.13828233 0.12495344 -0.01855003 0.10333499
0.009658742 -0.06998789 0.052341215 0.07879718 -0.007304561 0.051758394 -0.08471603 0.151442
0.17668304 0.16735874 0.055149388 0.040603366 -0.050792415 -0.041223746 -0.053050715 -0.06691001
-0.08696276 0.10469865 0.13333496 -0.09274164 0.070200324 0.10884268 0.1395316 0.09154746
0.13367018 -0.054071948 0.057463035 0.058614552 -0.1277445 -0.10932397 0.0037617984 0.046253875
-0.07694803 0.00035540605 0.019704284 0.028595239 -0.07423878 0.07049953 0.06933321 -0.08874168
-0.0023294552 -0.007868144 0.031051012 0.09984083 0.032164127 -0.02180495 0.106177196 -0.041191995
-0.025195083 0.014467852 -0.08135811 0.024031136 -0.13015194 -0.00058219244 0.040205065 -0.0031898962
-0.063743144 -0.088174894 0.043749567 0.07764548 -0.14207965 0.0035378875 -0.11176403 0.004922881
0.07539753 0.06235638 -0.10640579 0.06651181 0.039818283 -0.041558046 0.08772108 -0.053964596
-0.019522345 -0.065331675 -0.0024062474 0.020611402 0.015970249 -0.061800443 -0.05894537 0.027350238
-0.091188215 0.017429983 -0.001448213 -0.018777147 0.104521446 0.02654785 0.09257715 0.007933645
-0.0604603 0.08198928 0.0073173796 -0.030177062 -0.07850681 0.0319563 -0.11406375 0.02810338
0.066645384 -0.088797 -0.05915174 -0.07664599 0.10187017 0.104984626 0.0032041268 0.102745354
-0.044454597 -0.1205823 0.025169734 0.0247718 0.104992434 -0.014995762 0.06563953 0.04779865
0.075269274 -0.13328208 0.08074406 -0.10290441 0.096935086 -0.0065551098 -0.10313146 0.03055853
-0.02499679 -0.105056055 -0.04384475 0.012462372 0.084160104 -0.02341452 0.11779392 -0.004929879
00000000: 43b8 2a3d 4f97 223d cb62 473d 2776 0ebe
00000010: 1279 293a 6f68 46bd 7020 d7bd 5408 04be
00000020: a086 0f3d 18fe 473c a7a5 cdbd 9c6f ac3d
00000030: a8d5 563d 1fd7 3d3d b958 55bd 91b3 873c
00000040: a5b1 023e 6fcc bd3d 2a1d d3bd 1e61 d43d
00000050: 7c4f 8cbc 89c5 2f3d fb85 a33d 946c 7f3d
00000060: e13d c0bd d6ec c13d 8e98 c2bd f6cd 193b
00000070: 318f a8bd c065 0dbd cd1b 49bc cc97 64bc
00000080: 367a c5bc 2afc 003c b9bd f03d 8803 873d
00000090: 6946 a23d 5b85 d93d 05e3 273e 1cc5 dabc
000000a0: 858d 8a3d 9db4 973d fc82 ffbd 2314 c3bd
000000b0: 3af8 b5bc 23dc afbd 6916 49bc 0052 56bb
000000c0: 8801 2cbd 8281 603d df05 dbbc 5459 9c3d
000000d0: c741 713d dc0b 16be bbe5 d8bd 542b 9ebd
000000e0: 0dfb eabc 959a 82bd f7e8 113c 97fa ca3c
000000f0: 848b b2bd 3952 54bd b456 c7bc bf42 073e
00000100: aaf5 e2bb a628 76bd 1194 4cbb 8600 e63b
00000110: 9c56 fb3d 0ef2 1b3c bcd6 9f3d 7f8e b3bd
00000120: 6a83 533e a92a 813e b664 7e3d e90c 5e3e
00000130: dceb 453e 3d5e 8e3d ecb5 9b3d 1f35 eabc
00000140: 336e a8bd fb80 12bd 9601 25bb 7d3e c6bd
00000150: 47c4 703c fe57 ebbd c798 a03d 6f71 c73d
00000160: f00d 083d f79f a8bd ea98 b6bc 1308 2dbd
00000170: d491 a1bc 60a2 cdbc d831 ca3c 27ce 02be
00000180: 9eff 84bd 5794 a8bc 08e5 64bd bdd4 e63d
00000190: c5cb 9ebc 451e 423d ac32 f03c 2d67 a2bc
000001a0: 2ae7 bf3d 0225 213c 8710 ecbd d51d f7bc
000001b0: 129c d23c 00e9 c03a 2f92 95bd 58f7 9abd
000001c0: 3bd6 c3bc a697 1e3d 9235 1abd 9b50 273e
000001d0: 0ee5 823d b357 683d 7f78 1bbd 974b 65be
000001e0: 0cf9 033d 1138 ad3d f7c7 c5bd 61b0 acbd
000001f0: e299 0d3e 97e7 ff3d 3cf6 97bc 4ca1 d33d
00000200: b33f 1e3c d055 8fbd be63 563d 6a60 a13d
00000210: 195b efbb 9c00 543d 997f adbd 9d13 1b3e
00000220: 66ec 343e 1760 2b3e 53e4 613d b74f 263d
00000230: b50b 50bd 3bda 28bd b54b 59bd 1e08 89bd
00000240: 8819 b2bd 3f6c d63d f688 083e 54ef bdbd
00000250: 30c5 8f3d e9e8 de3d 5fe1 0e3e 3c7d bb3d
00000260: d6e0 083e 8c7a 5dbd 5c5e 6b3d d015 703d
00000270: 74cf 02be 3fe5 dfbd 8188 763b b474 3d3d
00000280: ee96 9dbd cb55 ba39 e16a a13c 9040 ea3c
00000290: 800a 98bd 0f62 903d 92fe 8d3d 33be b5bd
000002a0: c6a9 18bb 63e9 00bc b15e fe3c 5979 cc3d
000002b0: 88be 033d 4ba0 b2bc 6e73 d93d f0b8 28bd
000002c0: eb65 cebc 920a 6d3c 159f a6bd f2dc c43c
000002d0: 8d46 05be 469e 18ba 11ae 243d 940d 51bb
000002e0: c48b 82bd 0a95 b4bd bf32 333d 9804 9f3d
000002f0: 547d 11be e7db 673b 8ae4 e4bd 1e50 a13b
00000300: 056a 9a3d 6769 7f3d 47eb d9bd 5837 883d
00000310: 7f18 233d c538 2abd 1ca7 b33d fb09 5dbd
00000320: 53ed 9fbc 9dcc 85bd 22b2 1dbb 3ed9 a83c
00000330: 0ad4 823c 7622 7dbd b370 71bd 9b0d e03c
00000340: e3c0 babd 53c9 8e3c f7d1 bdba 88d2 99bc
00000350: 570f d63d e07a d93c 1799 bd3d 1efc 013c
00000360: 38a5 77bd ffe9 a73d a1c6 ef3b e335 f7bc
00000370: 2ec8 a0bd 9ce4 023d 419a e9bd 0f39 e63c
00000380: 607d 883d 34db b5bd 1849 72bd 93f8 9cbd
00000390: 4fa1 d03d 2e02 d73d 54fc 513b 286c d23d
000003a0: 0616 36bd daf3 f6bd c230 ce3c 3bee ca3c
000003b0: 4606 d73d c9b0 75bc 056e 863d 84c8 433d
000003c0: c726 9a3d 197b 08be 245d a53d 8cbf d2bd
000003d0: e785 c63d 3fcc d6bb 9636 d3bd e255 fa3c
000003e0: 11c6 ccbc a127 d7bd 8d96 33bd fa2e 4c3c
000003f0: 225c ac3d cfcf bfbc f03d f13d d38a a1bb

down_conv2.encoder.1.double_conv.0.conv1.bias f4 [16]
-0.08338148 -0.058268443 0.01478462 0.06808624 0.057824463 -0.05129 -0.10980391 -0.10164916
-0.03695276 0.0014587299 -0.05217245 -0.09183558 0.012241371 -0.09219254 -0.08919482 -0.094424546
00000000: e9c3 aabd e4aa 6ebd 313b 723c cc70 8b3d
00000010: 58d9 6c3d 7715 52bd dfe0 e0bd 6f2d d0bd
00000020: c75b 17bd da32 bf3a c7b2 55bd 4b14 bcbd
00000030: 0890 483c 71cf bcbd c6ab b6bd a861 c1bd

down_conv2.encoder.1.double_conv.1.weight f4 [16]
0.9801069 0.9960377 0.9791363 0.9756108 0.9997662 1.0059774 0.9714482 0.99478275
0.98697007 0.9763035 1.0031748 1.0078955 0.9989615 0.95910436 0.9751779 0.961253
00000000: 49e8 7a3f 54fc 7e3f ada8 7a3f a1c1 793f
00000010: adf0 7f3f dec3 803f d4b0 783f 15aa 7e3f
00000020: 12aa 7c3f 07ef 793f 0868 803f b802 813f
00000030: f1bb 7f3f dd87 753f 42a5 793f ad14 763f

down_conv2.encoder.1.double_conv.1.bias f4 [16]
-0.021525685 -0.049652364 -0.0020768489 -0.0027708542 -0.0010502039 0.0077484325 -0.023075692 0.017253106
-0.0005856141 -0.009257937 0.040397674 0.001042018 -0.001520323 -0.0024869086 -0.0030380855 -0.020866573
00000000: a256 b0bc 4760 4bbd be1b 08bb 3897 35bb
00000010: ffa6 89ba 90e6 fd3b 3c09 bdbc 6356 8d3c
00000020: e683 19ba 9aae 17bc 0878 253d 5294 883a
00000030: 9345 c7ba 67fb 22bb 9e1a 47bb 60f0 aabc

down_conv2.encoder.1.double_conv.1.running_mean f4 [16]
-0.095343865 0.49980545 0.13596784 -0.15631597 -0.13972084 0.19068252 -0.8036297 -0.040153854
0.37316522 -0.22896361 -0.49826884 0.008547996 -0.44421 0.56187886 -0.33891296 -0.65157676
00000000: a543 c3bd 80e6 ff3e 273b 0b3e 4b11 20be
00000010: fb12 0fbe 4742 433e adba 4dbf 5e78 24bd
00000020: 830f bf3e 7075 6abe 181d ffbe e50c 0c3c
00000030: 7e6f e3be 4bd7 0f3f 0086 adbe bccd 26bf

down_conv2.encoder.1.double_conv.1.running_var f4 [16]
0.29446906 1.2024004 0.33859932 0.3780054 0.10608828 0.43513983 0.63598627 0.13519958
0.19133043 0.15576926 0.4265379 0.625881 0.42959058 0.430853 0.16316287 0.4167953
00000000: a6c4 963e 42e8 993f e45c ad3e ec89 c13e
00000010: d044 d93d a6ca de3e ffcf 223f c271 0a3e
00000020: 20ec 433e fa81 1f3e 2d63 da3e bd39 203f
00000030: 4cf3 db3e c498 dc3e 2b14 273e 3266 d53e

down_conv2.encoder.1.double_conv.3.conv1.weight f4 [16, 16, 3, 3]
-0.022232698 0.07743954 0.020556698 -0.009920179 0.022197107 0.0204176 0.0149217555 -0.050351776
-0.040651172 -0.05678803 -0.020884912 -0.097364046 -0.0013974042 -0.019439515 0.08135545 0.08241295
0.06279396 0.005359076 -0.04877577 0.0021506972 -0.07498176 -0.06646094 -0.045156654 -0.045296047
-0.119320646 -0.0068161264 0.029221822 -0.0374387 0.030859936 1.3618952e-05 0.0039412905 0.01632613
0.07875575 0.035179116 -0.026310716 -0.0034582817 0.020240154 0.010991359 -0.032504708 -0.039218523
-0.061633915 -0.072249055 -0.05267797 -0.0028451805 -0.0051539154 0.078959286 -0.010583866 -0.009765524
0.108943395 0.07903072 0.04294731 0.057126664 0.02625111 -0.0648253 -0.025318597 -0.03846291
0.060633816 0.036009822 -0.0149119515 0.047609806 -0.062019512 0.03889822 0.048328772 -0.0245674
-0.08065382 -0.050491195 -0.06038816 -0.034836948 -0.10259078 -0.00446809 -0.052905217 -0.04081135
-0.057314616 -0.039461214 -0.10386389 -0.04792854 -0.004844002 0.034281682 0.0681478 -0.0748885
0.015195066 -0.07205293 -0.07831213 -0.019562887 -0.0811986 -0.09128875 -0.088479266 -0.07180656
0.054379478 0.038036488 -0.03340192 -0.041398697 -0.046503384 -0.0484799 -0.017147986 0.04204194
0.019047743 -0.031534713 0.038483873 -0.05270987 -0.086856976 0.0021533738 -0.04963826 -0.0022984908
0.044089206 -0.04055019 -0.07233768 0.00886562 -0.06421815 0.082700565 -0.026613768 0.07299681
-0.027366152 -0.010874244 0.028852945 0.05469494 0.084964946 0.054219633 -0.020524185 -0.03661936
-0.004349044 -0.037058733 -0.029043034 -0.086704046 -0.07885309 0.033876806 -0.060320694 0.054916814
0.009447212 0.012248403 0.066261135 -0.049120888 -0.012369069 0.023202147 0.03422513 -0.097786345
0.024715664 -0.056659527 0.0016395672 0.064669944 -0.0010331211 -0.03772605 -0.03634629 0.03695517
-0.023639645 -0.05803112 -0.14261623 -0.031741615 0.08774779 0.06300267 0.03898288 -0.06444984
0.05178605 -0.037324425 0.081521615 0.08355431 -0.014039865 -0.025313051 0.04699558 -0.07179164
0.041231826 -0.11519141 -0.021706048 -0.05208875 -0.05396925 0.010316164 -0.103346996 -0.12479103
0.0011836031 -0.010875265 -0.04259249 -0.050803486 -0.02774982 -0.04716388 0.09503024 0.017899338
-0.004044112 -0.05691333 -0.017290633 0.064653896 0.006267013 -0.043596007 -0.095811784 0.08474497
0.036665246 0.021721447 -0.07133236 -0.04150308 -0.0025905196 0.09794832 0.113093644 0.067119054
0.037822276 -0.06807158 -0.06597313 -0.08386472 -0.13025561 -0.07587387 -0.11226046 -0.07093583
-0.045733638 -0.030008057 -0.04899561 0.06278067 -0.003203697 0.075540066 0.07464995 -0.09947956
-0.0261005 0.05208044 0.09642284 0.00014502341 0.0735323 -0.073580585 -0.09363233 -0.014710215
0.03597551 0.09638606 -0.021502577 0.0029285122 0.058919165 0.018970126 -0.004023052 -0.08134976
-0.056718253 -0.063115865 0.0626771 0.031433202 -0.006446254 0.07238452 0.028358538 -0.072748676
0.05701917 0.027852176 -0.042789113 0.06334039 0.010182456 -0.009004773 -0.049436994 -0.020512348
-0.023234593 0.1054417 0.09491038 -0.10345616 0.011956862 -0.100780666 -0.029863989 -0.07003182
0.011488155 0.029315917 0.06578945 0.045300607 -0.01646491 0.110275395 0.14800487 0.0062387786
00000000: 5921 b6bc 9f98 9e3d 8566 a83c 3f88 22bc
00000010: b5d6 b53c d042 a73c 617a 743c aa3d 4ebd
00000020: d881 26bd 919a 68bd d616 abbc cd66 c7bd
00000030: 1b29 b7ba 9e3f 9fbc b09d a63d 1fc8 a83d
00000040: 1f9a 803d 309b af3b 1ac9 47bd b6f2 0c3b
00000050: 0990 99bd ac1c 88bd 2ff6 38bd 5988 39bd
00000060: 625e f4bd d059 dfbb 9a62 ef3c 5359 19bd
00000070: facd fc3c f47c 6437 f125 813b 60be 853c
00000080: b24a a13d fa17 103d 9289 d7bc 57a4 62bb
00000090: aece a53c 1a15 343c a823 05bd 9aa3 20bd
000000a0: d873 7cbd 50f7 93bd dbc4 57bd 3576 3abb
000000b0: 2de2 a8bb 68b5 a13d f467 2dbc 94ff 1fbc
000000c0: b71d df3d dcda a13d 85e9 2f3d a6fd 693d
000000d0: 910c d73c 20c3 84bd f268 cfbc 498b 1dbd
000000e0: 2a5b 783d 097f 133d 4251 74bc 8002 433d
000000f0: 2c08 7ebd bd53 1f3d 64f4 453d 9241 c9bc
00000100: d42d a5bd dbcf 4ebd 9359 77bd 30b1 0ebd
00000110: 1d1b d2bd 0e69 92bb 24b3 58bd cd29 27bd
00000120: bbc2 6abd 15a2 21bd 97b6 d4bd b750 44bd
00000130: 6fba 9ebb f36a 0c3d 1391 8b3d 245f 99bd
00000140: baf4 783c 7d90 93bd 1c62 a0bd 5942 a0bc
00000150: 744b a6bd 99f5 babd 9e34 b5bd 510f 93bd
00000160: 04bd 5e3d 26cc 1b3d 74d0 08bd ae91 29bd
00000170: 557a 3ebd dc92 46bd ef79 8cbc 2b34 2c3d
00000180: 030a 9c3c 8b2a 01bd 44a1 1d3d 4ee6 57bd
00000190: 12e2 b1bd 9e1f 0d3b 7d51 4bbd 47a2 16bb
000001a0: e296 343d f517 26bd c725 94bd 1b41 113c
000001b0: ce84 83bd ea5e a93d 1e05 dabc 5a7f 953d
000001c0: fb2e e0bc e329 32bc 035d ec3c cd07 603d
000001d0: 1a02 ae3d 6815 5e3d 5622 a8bc 2ffe 15bd
000001e0: 6d82 8ebb e6ca 17bd a8eb edbc e491 b1bd
000001f0: bb7d a1bd 68c2 0a3d d512 77bd 74f0 603d
00000200: 7bc8 1a3c 87ad 483c ebb3 873d fc32 49bd
00000210: a3a7 4abc 6e12 be3c a62f 0c3d 3544 c8bd
00000220: 8178 ca3c d213 68bd bfe6 d63a ad71 843d
00000230: cb69 87ba a186 1abd d9df 14bd 4e5e 173d
00000240: eea7 c1bc 0ab2 6dbd fd09 12be 7f03 02bd
00000250: 1db5 b33d 8b07 813d 83ac 1f3d 47fe 83bd
00000260: 9c1d 543d 7fe1 18bd cef4 a63d 861e ab3d
00000270: 7607 66bc 515d cfbc 707e 403d 7f07 93bd
00000280: b4e2 283d 79e9 ebbd e2d0 b1bc 035b 55bd
00000290: dc0e 5dbd 2105 293c 97a7 d3bd 7192 ffbd
000002a0: 2123 9b3a 2b2e 32bc 7675 2ebd 5117 50bd
000002b0: 9753 e3bc ea2e 41bd 379f c23d a2a1 923c
000002c0: 7884 84bb f41d 69bd 16a5 8dbc 4369 843d
000002d0: 845b cd3b ba91 32bd f838 c4bd c58e ad3d
000002e0: 4c2e 163d 2df1 b13c b316 92bd 22ff 29bd
000002f0: b5c5 29bb 2199 c83d a49d e73d b775 893d
00000300: 88eb 1a3d 1d69 8bbd ec1c 87bd 44c1 abbd
00000310: ba61 05be c263 9bbd d0e8 e5bd ce46 91bd
00000320: 3253 3bbd 75d3 f5bc 9faf 48bd 2793 803d
00000330: 1ef5 51bb c0b4 9a3d 13e2 983d f1bb cbbd
00000340: b7d0 d5bc 4d52 553d 5779 c53d 6d11 1839
00000350: 1a98 963d 6bb1 96bd 4fc2 bfbd 1d03 71bc
00000360: 0e5b 133d 0e66 c53d 2c26 b0bc 48ec 3f3b
00000370: 3955 713d 3d67 9b3c ced3 83bb b49a a6bd
00000380: 6651 68bd e442 81bd da5c 803d 1ac0 003d
00000390: 193b d3bb 563e 943d 2a50 e83c 42fd 94bd
000003a0: ef8c 693d 3f2a e43c a343 2fbd 9bb8 813d
000003b0: 51d4 263c c188 13bc 727e 4abd 8309 a8bc
000003c0: 7956 bebc d1f1 d73d 6060 c23d d3e0 d3bd
000003d0: b7e6 433c 1866 cebd 53a5 f4bc d86c 8fbd
000003e0: d138 3c3c ef27 f03c 9fbc 863d 218d 393d
000003f0: 6be1 86bc 11d8 e13d 978e 173e ab6e cc3b

down_conv2.encoder.1.double_conv.3.conv1.bias f4 [16]
-0.03355112 0.057153903 0.07704246 -0.0064220987 -0.058700547 -0.06743498 -0.020183679 -0.041911606
0.065286316 -0.058548328 0.049439162 0.015614343 -0.024979692 0.066947475 0.045704704 -0.0028730494
00000000: e66c 09bd 361a 6a3d 70c8 9d3d 7870 d2bb
00000010: fc6f 70bd 5a1b 8abd 3e58 a5bc 81ab 2bbd
00000020: d5b4 853d 5fd0 6fbd b880 4a3d 4dd3 7f3c
00000030: 36a2 ccbc c21b 893d db34 3b3d c549 3cbb

down_conv2.encoder.1.double_conv.4.weight f4 [16]
0.9732337 1.0507201 0.97944283 0.95779604 0.97518164 0.9825733 0.94692737 0.95494413
0.935158 1.0330012 0.97028834 0.9529626 1.0128211 0.99401987 0.96510977 0.9702277
00000000: d825 793f ff7d 863f c4bc 7a3f 1f32 753f
00000010: 81a5 793f ec89 7b3f d569 723f 3877 743f
00000020: 8466 6f3f 6239 843f d164 783f 5bf5 733f
00000030: 1fa4 813f 1678 7e3f 6f11 773f d860 783f

down_conv2.encoder.1.double_conv.4.bias f4 [16]
-0.0028038423 -0.05138236 0.00059017225 -0.011001351 -0.030768652 -0.00077617675 -0.011444715 -0.030742593
-0.03741516 -0.006214463 -0.002736297 -0.030130355 -0.030755904 -0.04226795 -0.012369571 -0.0125033455
00000000: abc0 37bb 4f76 52bd cab5 1a3a 033f 34bc
00000010: 8a0e fcbc 5778 4bba 9d82 3bbc e4d7 fbbc
00000020: a440 19bd b2a2 cbbb 7253 33bb efd3 f6bc
00000030: cef3 fbbc 2821 2dbd bea9 4abc d5da 4cbc

down_conv2.encoder.1.double_conv.4.running_mean f4 [16]
-0.58361167 -0.18342756 -0.095631 -0.10013235 -0.25045398 -0.10875887 -0.04085026 -0.044939846
0.5308193 -0.30935636 0.107926264 0.53399986 -0.06709182 -0.070969686 -0.6736425 -0.25865802
00000000: 9367 15bf 6fd4 3bbe 30da c3bd 3112 cdbd
00000010: 813b 80be f8bc debd 9a52 27bd d812 38bd
00000020: c6e3 073f f563 9ebe 7208 dd3d 37b4 083f
00000030: 7067 89bd 8e58 91bd d673 2cbf d36e 84be

down_conv2.encoder.1.double_conv.4.running_var f4 [16]
0.5696178 0.46753174 0.36632785 0.4265413 0.39412972 0.26397696 0.22523138 0.43685296
3.9691396 0.18039034 0.14999229 0.39856753 0.29162127 0.4596733 0.4477019 0.17729089
00000000: 79d2 113f 5260 ef3e 538f bb3e 9f63 da3e
00000010: 5fcb c93e fd27 873e 0ea3 663e 31ab df3e
00000020: 6206 7e40 3fb8 383e 9497 193e 0b11 cc3e
00000030: 624f 953e 4c5a eb3e 2f39 e53e be8b 353e

down_conv3.encoder.1.double_conv.0.conv1.weight f4 [32, 16, 3, 3]
-0.06194449 -0.0291287 0.00995849 0.049623802 -0.041034695 -0.051148243 -0.103639364 0.033620544
0.06556678 0.02963637 -0.048803743 0.104833715 -0.053611457 0.060018457 0.07265793 -0.10216079
0.0074488367 0.004448295 -0.04331237 0.1045642 0.11290208 0.05346417 0.025778381 -0.0007411426
-0.056847375 0.028834553 -0.014776873 0.10644919 0.12284273 0.035281222 -0.0556718 0.060398746
0.10218973 -0.020371305 -0.036013633 -0.026282115 0.05833526 0.019653885 0.10337446 0.054101307
0.020155482 0.010854831 -0.017663712 0.0893585 0.060961433 0.027798578 0.010986984 0.04340042
0.081110775 0.039143525 -0.02466841 0.022508122 -0.045009363 -0.025921663 -0.043679923 0.025578948
0.042500053 -0.05276 0.07205602 0.089328386 -0.0781133 0.027751852 -0.06823164 -0.016592216
0.038480226 -0.007095679 0.0054271887 -0.05900987 0.04571475 -0.057642817 -0.011609538 -0.019525642
0.02599373 -0.004651973 0.029953927 -0.0068553123 0.03618703 -0.028818278 -0.009109227 0.038683914
-0.07668883 -0.014290926 0.11170613 0.094212554 -0.075967774 0.042539287 -0.07203197 -0.03920139
0.027809685 0.042474795 -0.018400319 0.07860331 0.06649401 0.04715558 -0.08383175 -0.050221015
-0.028083535 0.04653141 -0.04065531 -0.0029382969 0.036006052 -0.03226914 -0.06470173 0.05344442
-0.018743599 0.03569491 -0.10922646 -0.054372836 0.06303943 0.03653925 0.08708609 -0.0840561
0.10501987 -0.03197299 -0.027926784 -0.05531765 -0.048983105 -0.09169557 -0.0744132 -0.0065330355
-0.057520773 0.055729635 -0.015437574 0.05213227 -0.011277641 -0.0013919217 0.10170358 -0.017248701
0.0063490923 0.08563208 0.0070683323 0.0047144946 0.013811099 -0.039138764 0.0048268544 -0.04957523
0.027925877 -0.00833043 -0.040170465 -0.033738114 0.022756685 0.027473096 -0.08065255 -0.07199064
-0.07396009 0.041918546 0.0688977 -0.0778533 0.022515649 0.024609433 -0.042066764 0.027260253
0.08216699 0.061104063 -0.007164632 -0.06335531 -0.056010656 -0.027136426 -0.007958009 -0.022953084
0.03381007 -0.101418994 0.03502966 -0.007838369 0.008857361 0.11214982 0.041716002 0.01080764
0.0045057395 -0.03895603 -0.047314443 0.028277611 -0.056924604 0.06591483 -0.008315364 0.03974554
0.07495589 0.034938842 0.04451673 0.08490178 -0.024399018 0.07255204 -0.059283413 0.07604136
-0.013758693 0.007939517 0.04466068 0.00894129 0.063095644 -0.049336392 -0.031765092 0.11292439
-0.057765517 0.04469587 0.0740726 0.0373324 -0.051224053 -0.018651452 -0.060072932 -0.026023146
-0.0130450325 -0.055592954 0.06252176 0.058202315 -0.04686961 -0.028450666 0.07560268 -0.013675664
0.05521292 0.11251159 -0.026341623 -0.096592955 0.060856417 -0.0446237 0.06842017 -0.05645767
0.014457658 0.026176045 -0.018775871 0.06270876 -0.07805337 -0.044533953 -0.012320725 0.053407818
0.019777484 0.0581751 0.03877461 0.051721033 -0.009643816 -0.016465986 -0.012415877 0.021404892
-0.018101646 0.038522415 0.057275273 0.042770144 0.058141667 0.02960222 0.07856163 -0.024877293
-0.07562457 0.061287284 0.040214926 0.067282945 0.017657299 0.009523008 -0.05225339 -0.091352284
-0.0005079441 0.0637956 -0.013117711 -0.0345452 0.07523105 -0.029780105 -0.023384752 -0.031762216
00000000: 81b9 7dbd 509f eebc ef28 233c 5442 4b3d
00000010: ff13 28bd d280 51bd e040 d4bd b2b5 093d
00000020: e047 863d f9c7 f23c 6fe6 47bd 0fb3 d63d
00000030: b097 5bbd ead5 753d aecd 943d ad39 d1bd
00000040: 5f15 f43b 01c3 913b 5068 31bd c125 d63d
00000050: 3539 e73d 3ffd 5a3d 2f2d d33c 3d49 42ba
00000060: cbd8 68bd 7136 ec3c b31a 72bc 0802 da3d
00000070: f894 fb3d 0b83 103d 1d08 64bd ad64 773d
00000080: d948 d13d b9e1 a6bc 0883 13bd 974d d7bc
00000090: f4f0 6e3d 2f01 a13c fdb5 d33d 5599 5d3d
000000a0: 1c1d a53c 76d8 313c 7db3 90bc 9701 b73d
000000b0: b2b2 793d d8b9 e33c c002 343c a4c4 313d
000000c0: 681d a63d f654 203d 6815 cabc f462 b83c
000000d0: bd5b 38bd ab59 d4bc b8e9 32bd f18a d13c
000000e0: 8914 2e3d df1a 58bd 1b92 933d cdf1 b63d
000000f0: def9 9fbd da57 e33c 08bd 8bbd 66ec 87bc
00000100: 719d 1d3d df82 e8bb 8fd6 b13b 55b4 71bd
00000110: 643f 3b3d e01a 6cbd ef35 3ebc 3df4 9fbc
00000120: cef0 d43c 946f 98bb f061 f53c 87a2 e0bb
00000130: da38 143d 4f14 ecbc de3e 15bc 0673 1e3d
00000140: 090f 9dbd 7d24 6abc 2fc6 e43d 83f2 c03d
00000150: fe94 9bbd ad3d 2e3d 7f85 93bd a391 20bd
00000160: 23d1 e33c 0dfa 2d3d 44bc 96bc c6fa a03d
00000170: 032e 883d 3626 413d fbaf abbd 8db4 4dbd
00000180: 710f e6bc b897 3e3d 2f86 26bd 7190 40bb
00000190: 157b 133d a52c 04bd 5782 84bd 89e8 5a3d
000001a0: 2d8c 99bc d334 123d 1fb2 dfbd 0db6 5ebd
000001b0: d11a 813d 2eaa 153d 315a b23d 9b25 acbd
000001c0: a814 d73d 1cf6 02bd b6c6 e4bc c394 62bd
000001d0: 82a2 48bd e3ca bbbd f365 98bd 1313 d6bb
000001e0: e79a 6bbd c244 643d e1ed 7cbc a688 553d
000001f0: dbc5 38bc 2471 b6ba f749 d03d 264d 8dbc
00000200: 0c0c d03b df5f af3d 789d e73b 0c7c 9a3b
00000210: f347 623c f84f 20bd 972a 9e3b 650f 4bbd
00000220: cfc4 e43c 5b7c 08bc c989 24bd fa30 0abd
00000230: 3a6c ba3c 420f e13c 2a2d a5bd d46f 93bd
00000240: 6378 97bd c8b2 2b3d 3d1a 8d3d 8d71 9fbd
00000250: bd72 b83c b999 c93c 334e 2cbd e550 df3c
00000260: 2b47 a83d 4148 7a3d 4ac5 eabb 6ec0 81bd
00000270: 6e6b 65bd 364d debc 4f62 02bc 1b08 bcbc
00000280: 6e7c 0a3d c3b4 cfbd 437b 0f3d 816c 00bc
00000290: 771e 113c ceae e53d 66de 2a3d 8712 313c
000002a0: e2a4 933b 5c90 1fbd cacc 41bd 73a6 e73c
000002b0: c629 69bd 5bfe 863d 2a3d 08bc 38cc 223d
000002c0: 7982 993d 081c 0f3d 2d57 363d fce0 ad3d
000002d0: 73e0 c7bc 2a96 943d 2ad3 72bd 93bb 9b3d
000002e0: 246c 61bc bf14 023c 1eee 363d 7d7e 123c
000002f0: 4a38 813d f514 4abd 1d1c 02bd e744 e73d
00000300: 899b 6cbd 0413 373d 60b3 973d dce9 183d
00000310: 50d0 51bd eeca 98bc 090f 76bd 7e2e d5bc
00000320: d5ba 55bc 70b5 63bd 690b 803d 8d65 6e3d
00000330: 59fa 3fbd 5f11 e9bc 94d5 9a3d e40f 60bc
00000340: f126 623d 7a6c e63d 63ca d7bc 87d2 c5bd
00000350: 9444 793d 57c7 36bd e01f 8c3d 2840 67bd
00000360: d0df 6c3c 256f d63c dbcf 99bc 736d 803d
00000370: 72da 9fbd 3c69 36bd dedc 49bc 28c2 5a3d
00000380: 6404 a23c 0349 6e3d 20d2 1e3d 6fd9 533d
00000390: 1901 1ebc ade3 86bc f66b 4bbc 5059 af3c
000003a0: e749 94bc aec9 1d3d 7a99 6a3d bf2f 2f3d
000003b0: f525 6e3d 5b80 f23c ebe4 a03d 77cb cbbc
000003c0: 0ee1 9abd 6008 7b3d 68b8 243d a4cb 893d
000003d0: 0aa6 903c 6406 1c3c a707 56bd e816 bbbd
000003e0: 8d27 05ba 44a7 823d abeb 56bc 457f 0dbd
000003f0: bd12 9a3d 68f5 f3bc 6191 bfbc 1919 02bd

down_conv3.encoder.1.double_conv.0.conv1.bias f4 [32]
-0.011272138 -0.06430284 0.0536663 -0.07281615 -0.008029065 0.07907739 0.041170646 -0.071156636
0.00886165 -0.012226223 0.03657264 0.07588282 0.07000106 -0.007838791 0.037839618 -0.080654986
0.064704515 0.043645967 -0.057769556 -0.023754058 -0.03193012 -0.04801963 0.033841852 -0.023947543
0.034158584 -0.02495516 0.06379788 -0.032309894 -0.014227573 -0.025534632 0.0037812754 -0.030265575
00000000: c6ae 38bc 35b1 83bd 32d1 5b3d a220 95bd
00000010: 578c 03bc 54f3 a13d 8da2 283d 92ba 91bd
00000020: 7430 113c 7f50 48bc 31cd 153d 7468 9b3d
00000030: b75c 8f3d 466e 00bc b7fd 1a3d 712e a5bd
00000040: cd83 843d 1dc6 323d c59f 6cbd df97 c2bc
00000050: 28c9 02bd 3bb0 44bd c19d 0a3d a32d c4bc
00000060: dfe9 0b3d c46e ccbc 77a8 823d 6157 04bd
00000070: c41a 69bc 012e d1bc 46cf 773b 83ef f7bc

down_conv3.encoder.1.double_conv.1.weight f4 [32]
0.9838604 0.9872099 0.99995065 0.9755106 0.97018015 0.9939892 0.9938168 0.9933528
0.992403 0.97557986 0.9805798 0.99906486 0.97676617 0.98387074 0.98698545 0.98968124
0.9833469 0.9613478 0.98286855 0.9987966 1.0096439 0.9831308 0.9719426 0.9613133
1.0033901 0.9901859 0.9719964 0.9823196 0.9946478 0.9861094 0.97731966 0.99641263
00000000: 46de 7b3f cab9 7c3f c4fc 7f3f 10bb 793f
00000010: ba5d 783f 1476 7e3f c76a 7e3f 5e4c 7e3f
00000020: 1f0e 7e3f 9abf 793f 4707 7b3f b7c2 7f3f
00000030: 590d 7a3f f4de 7b3f 14ab 7c3f c05b 7d3f
00000040: 9fbc 7b3f e41a 763f 469d 7b3f 22b1 7f3f
00000050: 033c 813f 76ae 7b3f 3bd1 783f a118 763f
00000060: 166f 803f d37c 7d3f c2d4 783f 4c79 7b3f
00000070: 3da1 7e3f aa71 7c3f 9f31 7a3f e614 7f3f

down_conv3.encoder.1.double_conv.1.bias f4 [32]
-0.033898037 0.0010779144 -0.010081709 -0.0005396699 -0.016431317 -0.007953244 -0.0017754352 -0.044517957
-0.010709494 -0.009944705 0.002493651 0.00042410527 -0.009389251 -0.011593886 -0.00255656 0.0025759528
-0.006068305 -0.012117551 -0.00087693555 -0.0025698168 0.019602003 0.00083838863 -0.003690214 -0.0109685315
0.0064275395 0.008677758 -0.0033295678 -0.019679131 0.0073528863 -0.018055864 -0.0195522 -0.015728544
00000000: abd8 0abd ce48 8d3a c12d 25bc a278 0dba
00000010: f89a 86bc 534e 02bc b8b5 e8ba 7658 36bd
00000020: e076 2fbc 1eef 22bc 856c 233b 725a de39
00000030: 5fd5 19bc 48f4 3dbc f68b 27bb 51d1 283b
00000040: a2d8 c6bb b188 46bc 26e2 65ba 5f6a 28bb
00000050: 6194 a03c 4fc7 5b3a 84d7 71bb 5bb5 33bc
00000060: 1c9e d23b 282d 0e3c e134 5abb 2136 a1bc
00000070: 7bf0 f03b e4e9 93bc ef2b a0bc 26d9 80bc

down_conv3.encoder.1.double_conv.1.running_mean f4 [32]
0.3418554 0.22319052 0.19506639 0.8863215 0.7856226 -0.056340735 0.6518894 0.49153864
0.2024335 0.022008285 -0.4592425 0.25116903 0.26660198 -0.14925125 0.72596127 0.07881582
-0.037620835 -0.55625093 0.045631252 0.630121 -0.34753945 -0.64010686 -0.50040543 -0.22340752
-0.17227702 0.14063819 0.4643305 -0.21224873 0.69926256 0.12542862 0.6098606 0.4331773
00000000: ac07 af3e 0e8c 643e 7cbf 473e f7e5 623f
00000010: 901e 493f 8bc5 66bd 39e2 263f f4aa fb3e
00000020: ba4a 4f3e b84a b43c d521 ebbe 3a99 803e
00000030: 0e80 883e 52d5 18be 99d8 393f 306a a13d
00000040: 4e18 1abd 7666 0ebf d6e7 3a3d 9c4f 213f
00000050: b1f0 b1be 0bde 23bf 921a 00bf f1c4 64be
00000060: 6369 30be 7503 103e babc ed3e bb57 59be
00000070: df02 333f 5c70 003e d31f 1c3f 6ac9 dd3e

down_conv3.encoder.1.double_conv.1.running_var f4 [32]
0.3114393 0.23890501 0.49518925 0.4381284 0.84419 0.27457306 0.1763674 0.27579126
0.5354676 0.40286005 0.32735407 0.2864326 0.40507266 0.3312404 0.41079697 0.27345327
0.25475797 0.29426855 0.15852235 0.25249046 0.32194778 0.36452156 0.2520587 0.6091755
0.69571453 0.31977305 0.16871724 0.4427792 0.42973065 0.33112687 0.23781386 0.67041564
00000000: f974 9f3e 84a3 743e 7289 fd3e 5e52 e03e
00000010: d61c 583f d794 8c3e a899 343e 8334 8d3e
00000020: 6814 093f ac43 ce3e f49a a73e 4ba7 923e
00000030: af65 cf3e 5798 a93e fb53 d23e 1102 8c3e
00000040: a36f 823e 5eaa 963e af53 223e 6e46 813e
00000050: 57d6 a43e 92a2 ba3e d70d 813e edf2 1b3f
00000060: 591a 323f 4bb9 a33e 36c4 2c3e f5b3 e23e
00000070: a805 dc3e 7689 a93e 7a85 733e 5ca0 2b3f
